tests/models/single_layer.onnx (onnx, 2821 bytes, 2 tensors)

convolution_W f4 [20, 1, 5, 5]
-0.113349065 -0.14405558 -0.07638977 0.30968133 0.18352443 -0.10736516 0.17076248 0.20655511
0.208469 0.20161383 0.13894 -0.08111349 -0.12638588 -0.09465349 0.3827555 -0.30362868
0.0025660328 -0.14692424 -0.11345909 0.25269637 -0.11701601 -0.18832608 -0.252028 -0.29575247
0.023901075 0.12542132 -0.16190286 -0.2098195 -0.37720633 -0.15412731 0.3332619 0.24057339
-0.17420727 -0.22003256 -0.18263648 0.07250334 0.24188626 0.12005538 0.12095491 -0.29953623
0.22332263 0.18964075 0.3024767 0.4077787 0.13048746 0.20999247 -0.086257026 -0.012963679
0.09884291 0.3448195 0.32364896 -0.23305355 0.0038708418 -0.0722698 0.089508295 0.37979317
-0.20890807 -0.13690491 -0.10384501 -0.03585574 0.2541164 -0.030707696 -0.18494968 -0.36962724
0.062879965 0.18771526 0.1828372 -0.21137536 -0.22991604 -0.22290348 0.118421495 -0.13445766
0.12870823 -0.3145159 0.05129591 -0.025621604 0.5215827 0.59465367 0.545914 0.51651937
0.06802036 0.42121586 0.11060246 0.30433595 0.25594452 -0.07270999 -0.34480363 -0.25945166
-0.32231054 -0.021067811 -0.39632335 -0.29064238 -0.4366817 -0.44296533 -0.16408652 -0.12243232
-0.19750303 -0.20891072 -0.017686548 -0.22834784 -0.41610307 0.02252475 0.14087845 0.44470236
0.33733281 -0.19486406 0.30330858 0.58721995 0.19880141 0.0072851153 0.31711835 0.42013282
0.55109257 0.061102483 -0.23385331 0.3102408 0.1598024 0.36631486 -0.14663915 -0.25184107
0.31099182 0.19602779 0.12574656 -0.2954636 -0.31376845 -0.11585435 0.11365263 0.04835699
0.035724618 -0.00026500167 -0.05097121 0.2720285 0.41204894 0.4991932 0.266992 -0.17734386
0.31884894 0.28357545 0.4248369 0.2508424 0.16723154 0.049933866 -0.26514784 0.33785456
-0.0017856461 -0.3314017 -0.21190122 -0.24678509 0.15131834 0.004252596 0.09287993 0.1767866
-0.03334664 0.061850406 -0.011562517 0.27814046 0.0958942 0.20862967 0.11288344 -0.079526424
-0.15995213 -0.08121998 -0.16338605 0.24511588 -0.11353685 -0.1156044 -0.3642975 -0.08862797
-0.24379653 0.19754218 -0.26724523 0.03709887 -0.06332122 -0.26808462 -0.12237831 0.24256921
0.20521237 0.1346225 0.25675198 0.25154734 -0.08231832 -0.1493916 0.12018288 -0.03582708
0.1410903 0.09448335 0.3311335 -0.17601752 -0.16205868 0.0711032 0.17098574 0.24093975
0.09890575 0.012918901 -0.10534658 -0.006768231 0.13975151 -0.2916039 -0.24553086 -0.16326131
0.14647816 -0.087269686 0.09741856 0.3670086 0.38557968 -0.122277565 -0.15202303 -0.15775405
-0.31458718 0.053309556 0.21512172 -0.2847329 -0.22764355 -0.10081984 -0.2001545 0.06378728
0.09683198 0.12954995 -0.29166153 0.07968273 -0.11617359 0.11552895 0.19639187 -0.1635934
0.037844803 0.30626902 0.09072095 -0.20777519 -0.22468433 0.08743448 0.03259179 0.16795266
0.07862855 0.18810362 0.21506044 0.16988024 -0.11576853 0.13791814 -0.036230892 0.23377167
-0.18046981 -0.34171703 -0.11748822 -0.26632118 -0.11288889 -0.12349099 -0.057060525 -0.26626652
-0.09389898 -0.10601238 0.17707269 -0.049144126 -0.07677927 0.069094524 -0.008200018 0.02463764
00000000: 8e23 e8bd 4e83 13be 3d72 9cbd 8d8e 9e3e
00000010: d4ed 3b3e 44e2 dbbd 5cdc 2e3e 2f83 533e
00000020: e678 553e db73 4e3e 4a46 0e3e d41e a6bd
00000030: 4d6b 01be b0d9 c1bd 87f8 c33e 3875 9bbe
00000040: e32a 283b 4f73 16be 3d5d e8bd 6b61 813e
00000050: 17a6 efbd 8dd8 40be d009 81be de6c 97be
00000060: 30cc c33c 726e 003e ddc9 25be ecda 56be
00000070: 3021 c1be 8dd3 1dbe 4ea1 aa3e df58 763e
00000080: 6463 32be 3750 61be 0f05 3bbe a27c 943d
00000090: 08b1 773e 98df f53d 35b7 f73d d05c 99be
000000a0: b0ae 643e 2f31 423e 3ade 9a3e 5fc8 d03e
000000b0: 819e 053e 4408 573e 86a7 b0bd 9c65 54bc
000000c0: 276e ca3d 2e8c b03e 51b5 a53e 97a5 6ebe
000000d0: f3ad 7d3b 3002 94bd 2050 b73d 4074 c23e
000000e0: ffeb 55be cd30 0cbe b1ac d4bd 78dd 12bd
000000f0: 8b1b 823e b58e fbbc 7363 3dbe c83f bdbe
00000100: 36c7 803d 6e38 403e ad39 3b3e c872 58be
00000110: 1c6f 6bbe cf40 64be f886 f23d 45af 09be
00000120: 17cc 033e 3a08 a1be a91b 523d 66e4 d1bc
00000130: 7286 053f 393b 183f 05c1 0b3f 9d3a 043f
00000140: 424e 8b3d 9ba9 d73e 8b83 e23d ecd1 9b3e
00000150: 290b 833e fae8 94bd 1a8a b0be d9d6 84be
00000160: e305 a5be 6796 acbc e5ea cabe 14cf 94be
00000170: be94 dfbe 5acc e2be 4c06 28be ccbd fabd
00000180: 3c3e 4abe b1ec 55be 61e3 90bc 04d4 69be
00000190: 760b d5be d385 b83c 7142 103e 07b0 e33e
000001a0: e3b6 ac3e 728a 47be 434b 9b3e 0c54 163f
000001b0: 9992 4b3e fab7 ee3b 565d a23e a61b d73e
000001c0: 6714 0d3f 9946 7a3d 3e77 6fbe e2d7 9e3e
000001d0: 3ea3 233e 9f8d bb3e 9328 16be 50f1 80be
000001e0: 523a 9f3e 82bb 483e b5c3 003e 0147 97be
000001f0: 42a6 a0be 0c45 edbd b6c2 e83d fb11 463d
00000200: fa53 123d ecef 8ab9 30c7 50bd 5247 8b3e
00000210: 14f8 d23e 4096 ff3e 2db3 883e a199 35be
00000220: 2b40 a33e cd30 913e 3984 d93e 6a6e 803e
00000230: bf3e 2b3e 7487 4c3d 75c1 87be 46fb ac3e
00000240: 570c eaba 7cad a9be a2fc 58be 3bb5 7cbe
00000250: 32f3 1a3e 5c59 8b3b d537 be3d 8c07 353e
00000260: 7d96 08bd da56 7d3d b670 3dbc 6d68 8e3e
00000270: 2e64 c43d 04a3 553e 6f2f e73d c0de a2bd
00000280: 7eca 23be a956 a6bd ac4e 27be a8ff 7a3e
00000290: 0286 e8bd 00c2 ecbd 3485 babe 9582 b5bd
000002a0: cca5 79be 7f48 4a3e 5ed4 88be fcf4 173d
000002b0: 8eae 81bd 6342 89be 7ba1 fabd 1064 783e
000002c0: 3123 523e 7bda 093e ff74 833e d0ca 803e
000002d0: 8296 a8bd 1dfa 18be 7122 f63d 6bbf 12bd
000002e0: fa79 103e 7d80 c13d 558a a93e f03d 34be
000002f0: b6f2 25be 8e9e 913d e316 2f3e e9b8 763e
00000300: 198f ca3d cca9 533c f3bf d7bd 09c8 ddbb
00000310: 051b 0f3e 1b4d 95be 716c 7bbe f92d 27be
00000320: 5ffe 153e 73ba b2bd 6283 c73d 8de8 bb3e
00000330: b36a c53e a96c fabd edab 1bbe 478a 21be
00000340: 9211 a1be 1f5b 5a3d de48 5c3e 83c8 91be
00000350: 641b 69be a27a cebd 4df5 4cbe e8a2 823d
00000360: d84f c63d bea8 043e a954 95be b330 a33d
00000370: 6bec edbd 719a ec3d f31a 493e 0785 27be
00000380: 2703 1b3d 4bcf 9c3e e8cb b93d 05c3 54be
00000390: a613 66be d910 b33d f87e 053d c8fb 2b3e
000003a0: 0108 a13d 3c9e 403e ce38 5c3e 16f5 2d3e
000003b0: 0d18 edbd 6a3a 0d3e d866 14bd d761 6f3e
000003c0: 14cd 38be 89f5 aebe aa9d f0bd 405b 88be
000003d0: 4a32 e7bd d8e8 fcbd 4cb8 69bd 1654 88be
000003e0: 1c4e c0bd 051d d9bd 8b52 353e 5a4b 49bd
000003f0: 733e 9dbd 6e81 8d3d 5e59 06bc e0d4 c93c

convolution_B f4 [20]
-0.11683766 -0.15850864 0.21798608 -0.19447684 -0.20014206 -0.25140154 0.07435781 -0.03347175
0.10707668 0.0393867 0.13033356 -0.19400527 -0.16302848 0.1725064 0.10232815 -0.33743972
0.041780353 -0.12227703 -0.028787378 -0.18417399
00000000: 9548 efbd 1750 22be be37 5f3e f024 47be
00000010: 0af2 4cbe b4b7 80be e848 983d ac19 09bd
00000020: 054b db3d f353 213d 2976 053e 51a9 46be
00000030: f0f0 26be 85a5 303e 6c91 d13d e6c4 acbe
00000040: e021 2b3d 616c fabd 82d3 ebbc 1b98 3cbe
